cnn.pth (torch, 250839 bytes, 10 tensors)

conv1.weight f4 [6, 3, 5, 5]
0	0xbdda4e02	-0.1065941
1	0xbe66cf98	-0.22540128
2	0xbd2b4507	-0.041813876
3	0x3d2963d0	0.041354954
4	0x3f02cee0	0.51096916
5	0xbe574e56	-0.21025977
6	0xbed9714d	-0.42469254
7	0xbec5f764	-0.38665307
8	0xbe93e2cc	-0.2888397
9	0x3d00009c	0.03125058
10	0xbeae8090	-0.3408246
11	0xbf09cf48	-0.5383191
12	0xbedef31e	-0.4354486
13	0xbe41e8ea	-0.18936506
14	0x3dd58632	0.10425986
15	0xbe725d88	-0.23668492
16	0xbee4cb68	-0.44686437
17	0xbed6bb45	-0.4193975
18	0xbeb65b28	-0.35616422
19	0xbdd96aad	-0.1061605
20	0xbe2ca107	-0.16858302
21	0xbe4b72c6	-0.19868001
22	0xbe8c4007	-0.273926
23	0xbe7fae4b	-0.24968831
24	0x3bc02e94	0.0058649275
25	0xbe4000eb	-0.1875035
26	0x3dab9726	0.08378439
27	0xbd838af3	-0.06422987
28	0x3dd53a85	0.10411552
29	0xbe1a7dcc	-0.1508705
30	0x3d7733af	0.060352024
31	0x3e0c3679	0.13692655
32	0xbcc5993d	-0.024120921
33	0x3c6aaf30	0.0143239945
34	0xbe10c4c5	-0.14137562
35	0xbb3c4f08	-0.002873363
36	0x395d46e9	0.00021102618
37	0x3ddd5190	0.108065724
38	0xbc79fc20	-0.015257865
39	0xbdb2ae7d	-0.08724687
40	0x3cec6ebf	0.028861402
41	0x3e65b4d4	0.22432262
42	0x3e268621	0.16262104
43	0x3c72bd09	0.014815577
44	0x3dc8fb13	0.098135136
45	0xbe9031a7	-0.28162882
46	0x3c2cc343	0.010544601
47	0x3cd4c331	0.02597198
48	0xbe26c1f2	-0.16284922
49	0x3d9eff60	0.07763553
50	0x3e4cde8e	0.20006773
51	0x3ee40284	0.4453317
52	0x3ece9b7c	0.40353
53	0x3e921475	0.28531232
54	0xbe83599f	-0.25654313
55	0x3f0c7fc2	0.5488244
56	0x3f21c2fa	0.63188136
57	0x3f336edc	0.70091033
58	0x3ea24331	0.31691888
59	0xbe72dc3a	-0.23716822
60	0x3ed8aeeb	0.42320952
61	0x3f1ecdb1	0.6203261
62	0x3f10ebff	0.566101
63	0x3e807054	0.250857
64	0x3b294e9f	0.0025834215
65	0x3edcc5c8	0.43119645
66	0x3ed03dd2	0.40672165
67	0x3ebf2dd8	0.37339664
68	0x3e681ae0	0.22666502
69	0x3e0b2dd5	0.13591702
70	0xbc657854	-0.014005739
71	0x3e3d01cf	0.18457721
72	0x3e27af42	0.1637545
73	0x3bbf2ad6	0.005833964
74	0x3d2701ed	0.04077332
75	0xbe42f5f5	-0.19039138
76	0xbe9d1d54	-0.30686438
77	0x3f190c25	0.59784156
78	0xbdceef69	-0.101042576
79	0xbe82fc62	-0.25583178
80	0x3ed21de2	0.41038424
81	0xbf5fb81d	-0.8739031
82	0xbf5af859	-0.855352
83	0x3f5ce805	0.86291534
84	0x3caac267	0.020844651
85	0x3f14fb61	0.58196074
86	0x3ee5a5f4	0.44853175
87	0xbfa9e59f	-1.32732
88	0xbf14ab02	-0.5807344
89	0xbd3269b6	-0.043557845
90	0xbeb50622	-0.3535624
91	0x3f965d1a	1.1747162
92	0x3eec88ef	0.46198222
93	0xbfa8da2e	-1.3191583
94	0xbf001d32	-0.5004455
95	0x3e93e5dc	0.28886306
96	0xbdaa6fe5	-0.083221234
97	0x3ea7b006	0.32751483
98	0xbe201afd	-0.15635295
99	0x3dd5c5db	0.104381286
100	0xbea726d8	-0.32646823
101	0xbe0e173d	-0.13876052
102	0x3f42a2fc	0.76029944
103	0x3e98b1db	0.29823193
104	0xbd5e6117	-0.05429181
105	0x3e788df5	0.24272902
106	0xbf371801	-0.71521
107	0xbf36b79d	-0.7137392
108	0x3f8790c7	1.0591058
109	0x3ef494c3	0.47769746
110	0x3f19edc1	0.6012841
111	0x3ec416a2	0.38298517
112	0xbf74736e	-0.9548863
113	0xbeaace2b	-0.3336042
114	0x3e731b16	0.23740801
115	0xbeca5142	-0.3951512
116	0x3f898965	1.0745054
117	0x3f2a3919	0.66493374
118	0xbf5bca96	-0.85855997
119	0xbe803239	-0.25038317
120	0x3d790a5b	0.06080089
121	0xbefadd3b	-0.4899691
122	0x3e6206eb	0.22072951
123	0xbb541f38	-0.003236724
124	0x3dcdb377	0.10043996
125	0xbee3478c	-0.44390523
126	0xbd9c9be5	-0.07646922
127	0x3ef99bb7	0.48751613
128	0x3de833c0	0.113379955
129	0xbe2d287b	-0.16909973
130	0x3dfe46b9	0.12415833
131	0xbf43c8d6	-0.76478326
132	0xbf4a563d	-0.7903784
133	0x3f57f6bf	0.8436088
134	0x3d787630	0.060659587
135	0x3f11a0cb	0.56885976
136	0x3f281dd6	0.65670526
137	0xbf6e88fd	-0.9317778
138	0xbed7757f	-0.4208183
139	0x3d5f034e	0.05444651
140	0xbe23e76e	-0.16006252
141	0x3f8930a1	1.0717965
142	0x3f1f897c	0.6231916
143	0xbf8c7996	-1.0974605
144	0xbec3bace	-0.38228458
145	0x3ec442dd	0.38332263
146	0xbe136cf5	-0.14397033
147	0x3e371bfe	0.17881772
148	0xbd9019e8	-0.07036191
149	0x3e00b6b9	0.12569703
150	0x3e33e2a8	0.17566931
151	0x3f10309b	0.56324166
152	0x3f277dc0	0.65426254
153	0x3f124484	0.57135797
154	0x3e8093da	0.25112802
155	0x3e4848e1	0.19559051
156	0x3f11d6e4	0.5696852
157	0x3e87f6b5	0.2655541
158	0x3ea7a465	0.3274261
159	0xbe4282c0	-0.1899519
160	0x3f02c256	0.51077783
161	0x3f34ca44	0.7062113
162	0xbe9e2525	-0.30887714
163	0xbed8e27f	-0.42360303
164	0xbe4738f7	-0.19455324
165	0x3f30650b	0.6890418
166	0x3d5849fe	0.05280494
167	0xbf6b962c	-0.9202602
168	0xbee90bc2	-0.45516783
169	0xbde5451c	-0.11194822
170	0xbc747834	-0.014921237
171	0xbf35de9b	-0.71042794
172	0xbf662741	-0.89903647
173	0x3d839a6c	0.06425938
174	0xbe699b6d	-0.22813196
175	0xbe5ca228	-0.21546233
176	0xbe29c799	-0.16580047
177	0xbf0b8fdf	-0.54516405
178	0xbeabe141	-0.33570293
179	0xbe802e37	-0.2503526
180	0x3d41c594	0.047307566
181	0x3ea2e4fe	0.31815332
182	0xbeb4e676	-0.35332078
183	0xbea27280	-0.31727982
184	0xbec3f7c6	-0.38274974
185	0x3f11beaf	0.56931585
186	0x3f11fdb4	0.57027745
187	0xbf476cdb	-0.77900475
188	0xbf112f93	-0.5671322
189	0xbd8c9ae3	-0.0686548
190	0x3f7379c8	0.951077
191	0xbdb72a06	-0.08943562
192	0xbfa84432	-1.3145812
193	0xbf05be20	-0.5224323
194	0x3ea8eadd	0.32991686
195	0x3ed6e4cb	0.4197143
196	0xbf01ac25	-0.50653297
197	0xbf21cf4c	-0.63206935
198	0x3f231be1	0.63714415
199	0x3f4bcbee	0.79608047
200	0xbed7f825	-0.42181507
201	0xbd8381f5	-0.06421272
202	0xbdfa7f04	-0.122312576
203	0xbe1dd3db	-0.15412848
204	0xbd966716	-0.07343881
205	0xbe9aaacd	-0.30208436
206	0x3e990aba	0.29890996
207	0x3ddaed20	0.10689759
208	0x3db567dc	0.088577
209	0xbdafb1c6	-0.085788295
210	0x3e8ee7b6	0.27911156
211	0x3f3ec8a7	0.7452492
212	0xbe893ad4	-0.26802695
213	0xbe34cf1e	-0.17657134
214	0x3df4e713	0.119581364
215	0x3f336204	0.70071435
216	0x3d11e4f1	0.035618726
217	0xbf2da1eb	-0.6782519
218	0xbe757244	-0.2396937
219	0x3eaf6114	0.34253752
220	0x3e41d02b	0.18927066
221	0xbf0c7c5a	-0.54877245
222	0xbee515c8	-0.4474318
223	0x3f18e526	0.5972465
224	0x3eaa98d9	0.33319739
225	0xbf0a5358	-0.5403342
226	0xbf2c4092	-0.67286026
227	0xbcc397c6	-0.023876082
228	0xbfaa3f9c	-1.3300662
229	0xbd6eb9bc	-0.0582826
230	0xbebfad47	-0.37436888
231	0xbf2ce67c	-0.6753919
232	0xbf1ba316	-0.60795724
233	0xbfb042ee	-1.3770425
234	0xbeaa19d3	-0.33222827
235	0x3efb0e8c	0.49034536
236	0x3f4b055b	0.79305047
237	0x3f45cbfa	0.7726437
238	0x3f19be51	0.60056025
239	0x3f960e04	1.1723027
240	0x3e0f614f	0.14001964
241	0x3f10dc79	0.56586415
242	0x3f49359b	0.7859742
243	0x3e14eeae	0.14544174
244	0x3efddaec	0.49581087
245	0xbe178437	-0.1479653
246	0x3e22f67c	0.15914339
247	0xbe40274d	-0.18764992
248	0xbf2a33de	-0.66485393
249	0xbe0f4397	-0.13990627
250	0x3e955d43	0.29172716
251	0x3dfe36d9	0.12412805
252	0x3f70e6a3	0.94101924
253	0xbf32a65c	-0.69785094
254	0x3ef98341	0.4873295
255	0xbcbfda63	-0.023419565

conv1.bias f4 [6]
0	0x3fa583dc	1.2930865
1	0x3f0a9bd5	0.5414403
2	0x3d28d101	0.041214947
3	0xbe857cad	-0.26071683
4	0x3d2f02f6	0.042727433
5	0x3eb15e9b	0.3464249

conv2.weight f4 [16, 6, 5, 5]
0	0xbe883ef0	-0.26610518
1	0xbeb14223	-0.3462077
2	0xbdb6dcdb	-0.089288436
3	0x3ee5d66f	0.44890162
4	0x3ebfe226	0.37477225
5	0xbea29886	-0.3175699
6	0xbee3ee53	-0.44517764
7	0xbdb94580	-0.09046459
8	0x3eab936a	0.33510906
9	0x3ef3b6fc	0.47600543
10	0xbeddc9d4	-0.43318045
11	0xbf1433ed	-0.5789173
12	0xbf1a1150	-0.60182667
13	0x3d068337	0.03283998
14	0x3ed1461e	0.40873808
15	0xbecbae5c	-0.39781463
16	0xbed5a8b3	-0.4173027
17	0xbe385ca2	-0.18004087
18	0x3e2bcbcc	0.16776961
19	0x3e9b590a	0.3034137
20	0xbee99d7f	-0.45627972
21	0xbe44a9a5	-0.19205339
22	0x3e31b414	0.1735385
23	0x3de4d384	0.11173156
24	0x3d0544a3	0.03253616
25	0x3e48cbb2	0.19608954
26	0x3d4a083b	0.049324255
27	0x3d198239	0.037477706
28	0xbe0ef101	-0.13959123
29	0x3e83914e	0.25696796
30	0xbcc63fd3	-0.024200356
31	0xbdb25b5f	-0.08708834
32	0xbd39a482	-0.045322903
33	0x3e58096f	0.21097349
34	0xbd6f853d	-0.058476675
35	0x3e6cf945	0.23141964
36	0xbe552601	-0.20815279
37	0x3f111353	0.5667011
38	0x3e0aeeb7	0.13567625
39	0xbe3f7127	-0.18695508
40	0xbcce13af	-0.02515587
41	0x3e71e69e	0.2362313
42	0x3e81d7c6	0.25359935
43	0xbec83f00	-0.39110565
44	0x3e1a4120	0.15063906
45	0x3e3ed2c8	0.18635094
46	0x3e6092c1	0.21930982
47	0x3cc5c47c	0.024141543
48	0x3eb38637	0.35063335
49	0x3e84fb2e	0.25972885
50	0xbda62d02	-0.08114053
51	0x3e56ec69	0.20988621
52	0x3dd9c5c2	0.106334224
53	0xbe36394b	-0.17795293
54	0xbeae1eae	-0.34007782
55	0xbe805eda	-0.25072366
56	0x3e15491e	0.14578673
57	0xbee8be13	-0.45457515
58	0x3e24b709	0.16085447
59	0x3d9fd3b1	0.07804049
60	0x3c97d20a	0.018532772
61	0xbe8991ee	-0.26869148
62	0xbd305eda	-0.043059207
63	0x3f0e67c0	0.5562706
64	0xbe950613	-0.29106197
65	0xbd8c74f7	-0.06858247
66	0x3e2acbdc	0.16679329
67	0x3f06242f	0.5239896
68	0xbf679715	-0.9046491
69	0xbd6b7fcc	-0.057494923
70	0x3e07231e	0.1319699
71	0x3e68ca6e	0.22733471
72	0xbeac4c86	-0.33652133
73	0xbe5e4a4a	-0.21708027
74	0x3ed06fce	0.407103
75	0x3dccd55e	0.10001634
76	0x3d1f5e2b	0.038908165
77	0xbddf672d	-0.10908351
78	0x3e8e1514	0.27750456
79	0x3b7a6264	0.0038205618
80	0x3e9708e2	0.29498965
81	0x3e78f41f	0.24311875
82	0xbd8bfb81	-0.0683508
83	0x3d4fd6fa	0.050742127
84	0xbe878ace	-0.26473087
85	0x3dc556b5	0.09635679
86	0x3ee88b44	0.4541875
87	0x3e344a88	0.17606556
88	0xbf2946cd	-0.6612366
89	0xbd2ec854	-0.042671517
90	0x3ea5f9ff	0.32417294
91	0xbe85dbf2	-0.26144367
92	0xbdd5bd5a	-0.104365066
93	0xbe6f4442	-0.23365882
94	0xbd741b6b	-0.05959646
95	0xbd71b6da	-0.05901227
96	0x3daf0703	0.08546259
97	0x3e7a7e0c	0.24462146
98	0xbe103833	-0.14083938
99	0x3ce2aaca	0.02766933
100	0xbdc6dba5	-0.097098626
101	0x3d5d8352	0.054080315
102	0xbe9ea14d	-0.30982438
103	0x3e3d65b1	0.18495823
104	0x3e51761c	0.20455211
105	0xbd230208	-0.03979686
106	0xbdb75ac3	-0.08952858
107	0x3d004efe	0.031325333
108	0xbd8cf6ed	-0.06883035
109	0xbcde46f1	-0.027133437
110	0xbd964e1f	-0.07339119
111	0x3e1e2e32	0.1544731
112	0xbd95b559	-0.0730998
113	0xbea51d02	-0.32248694
114	0x3e78782d	0.24264593
115	0x3d572553	0.05252583
116	0x3d9ae133	0.075624846
117	0xbf124577	-0.57137245
118	0x3ed61cf2	0.4181896
119	0x3ed2c57f	0.41166303
120	0xbdd1b0ba	-0.10238786
121	0xbe5eaa28	-0.21744597
122	0x3f48c479	0.78424793
123	0x3ec8125a	0.390765
124	0xbe879061	-0.2647734
125	0xbd9c9c0a	-0.076469496
126	0xbd5b837e	-0.053592198
127	0xbc01e4b0	-0.0079280585
128	0x3dae7b4d	0.085196115
129	0xbc6311c4	-0.013859216
130	0x3e0f2a54	0.1398099
131	0xbd44df14	-0.048064306
132	0xbe51165d	-0.20418687
133	0xbd8a76f2	-0.06760968
134	0x3e7de650	0.24794888
135	0xbdaa8461	-0.083260305
136	0xbea6c2d5	-0.3257052
137	0xbeea150e	-0.45719188
138	0x3c2e6970	0.010645255
139	0x3e369c21	0.17832996
140	0xbef76cdf	-0.4832525
141	0xbee06c2e	-0.43832535
142	0x3e063268	0.13105166
143	0xbd4a9e11	-0.04946715
144	0x3e8bc507	0.27298757
145	0xbd7b5ec4	-0.061369672
146	0x3d2930bd	0.041306246
147	0xbe3a09f8	-0.18167865
148	0xbe8c5a2a	-0.2741254
149	0xbd9bc379	-0.07605643
150	0x3d0cb628	0.034353405
151	0xbc4b84ed	-0.012421829
152	0x3d1417a4	0.036155358
153	0x3c8e959a	0.01740532
154	0xbdf65224	-0.12027386
155	0x3e0c86c5	0.13723285
156	0xbcb349d2	-0.021885786
157	0xbdd3d3d7	-0.103431396
158	0x3e2e8385	0.17042358
159	0x3e943ce7	0.28952715
160	0x3e871aeb	0.26387724
161	0xbbd91ae6	-0.006625521
162	0xbe9bd20d	-0.30433694
163	0x3dbc483e	0.091934666
164	0x3e0ccfc0	0.13751125
165	0x3d851dba	0.064998105
166	0xbdd6d3d8	-0.10489625
167	0xbe432444	-0.19056803
168	0x3de82765	0.11335639
169	0xbda98299	-0.08276863
170	0xbd963e53	-0.07336106
171	0xbe7f44e2	-0.2492862
172	0xbdfcdb4f	-0.12346517
173	0x3ce70878	0.02820228
174	0xbddc8f91	-0.107695706
175	0x3ec9f1ce	0.39442295
176	0xba8a8b77	-0.0010570128
177	0xbec39bee	-0.38204902
178	0x3db24cf5	0.08706085
179	0x3e337cd2	0.17528084
180	0x3dc73bc5	0.09728197
181	0x3f0ef9ca	0.558499
182	0x3e919682	0.2843514
183	0xbd8a5723	-0.06754901
184	0x3ec45bc6	0.38351268
185	0xbeb517d5	-0.35369745
186	0x3eb78746	0.35845393
187	0x3f4e775f	0.80650896
188	0xbdbb6b22	-0.09151293
189	0x3e04fc21	0.12986805
190	0x3d2e71b4	0.042588905
191	0xbe0846e3	-0.13308291
192	0x3f23318a	0.63747466
193	0x3eead0f4	0.45862544
194	0xbdf1aa5a	-0.1180007
195	0x3cb97976	0.022640925
196	0xbe2ef777	-0.17086588
197	0x3df2b4a2	0.11850859
198	0x3eb1263c	0.34599483
199	0x3d2cc4fc	0.042180046
200	0xbd0fa2da	-0.035067417
201	0xbd58b99a	-0.05291138
202	0xbe951db5	-0.29124227
203	0xbe14c068	-0.14526522
204	0xbdb0fbf3	-0.086418055
205	0x3e261597	0.16219173
206	0x3ea43fcc	0.32079923
207	0x3e5347f4	0.20632917
208	0xbe1dca6a	-0.15409246
209	0xbe1bf218	-0.1522907
210	0xbded234f	-0.11579
211	0x3dbdfaaf	0.0927633
212	0x3e1010ca	0.14068905
213	0xbec8e94c	-0.3924049
214	0xbe49a0bd	-0.19690223
215	0xbd9a5ac4	-0.075368434
216	0x3d814d7e	0.063136086
217	0x3e8673db	0.26260266
218	0x3d523b1e	0.05132591
219	0xbcd215de	-0.025645193
220	0xbefd43a3	-0.49465665
221	0xbdb07434	-0.08615914
222	0x3c4c3c64	0.01246557
223	0x3f063df1	0.52438265
224	0x3ef297a4	0.47381318
225	0xbee2a7f2	-0.44268757
226	0xbc52ea65	-0.012873267
227	0xbe8fb519	-0.28067854
228	0x3d9285cf	0.07154428
229	0x3c3b602f	0.011436506
230	0xbe47695b	-0.19473784
231	0xbef02ed9	-0.46910742
232	0xbea9ad68	-0.3314011
233	0xbe9fe8af	-0.3123221
234	0xbe095b7a	-0.13413802
235	0xbe6d04bf	-0.23146342
236	0xbd11765c	-0.035513267
237	0xbedacf88	-0.4273646
238	0xbf08886b	-0.5333316
239	0xbe03f087	-0.12884723
240	0xbe8411ad	-0.25794736
241	0xbe4920f1	-0.19641472
242	0xbe9f8cd5	-0.31162134
243	0xbeffc4e6	-0.4995491
244	0xbe38351e	-0.17989013
245	0xbe3e6f49	-0.1859714
246	0xbebfe8bf	-0.3748226
247	0xbf091294	-0.5354397
248	0xbec4afbd	-0.38415328
249	0xbea95ad3	-0.33077106
250	0x3c2e2369	0.01062856
251	0x3ebc5be4	0.36788857
252	0xbdab8e6e	-0.08376776
253	0xbed0a585	-0.4075128
254	0xbd815df2	-0.06316747
255	0xbe3da5fb	-0.18520348

conv2.bias f4 [16]
0	0xbc81a57f	-0.015825985
1	0x3e27f442	0.1640177
2	0x3edf8dc2	0.4366284
3	0xbf308e07	-0.68966717
4	0x3f38f176	0.7224344
5	0x3f30e7bb	0.6910359
6	0xbf7291d1	-0.9475375
7	0xbeaa220c	-0.332291
8	0x3f963fca	1.1738217
9	0xbfcc4f5e	-1.5961721
10	0xbf0339bf	-0.5125999
11	0x3edac92f	0.42731616
12	0xbfde611d	-1.7373387
13	0x3f2ad6c8	0.6673398
14	0x3e94574b	0.2897285
15	0xbfd4ae3a	-1.661567

fc1.weight f4 [120, 400]
0	0x3c21045b	0.009827699
1	0x3cf16cfe	0.029470917
2	0xbda875a0	-0.0822556
3	0xbd790b44	-0.06080176
4	0x3e381177	0.17975412
5	0x3d24a98f	0.040200766
6	0x3cafe927	0.02147348
7	0x3d77ea5d	0.06052624
8	0xbd926f36	-0.07150118
9	0x3d8ef538	0.069803655
10	0x39fe96f8	0.00048559136
11	0x3d418987	0.047250297
12	0x3d339ecb	0.04385261
13	0xbdb6d06b	-0.08926471
14	0x3d3b0409	0.045658145
15	0xbe164110	-0.14673257
16	0x3bd2dc82	0.006434978
17	0x3df1b5d1	0.11802257
18	0xbdc07959	-0.09398145
19	0x3b4d7baa	0.0031354227
20	0x3cf935a4	0.030421086
21	0x3e477f1a	0.19482079
22	0x3db1d242	0.086826816
23	0xbe599684	-0.21248823
24	0x3d040b4f	0.032237347
25	0x3dfe8f52	0.1242968
26	0xbbe616b6	-0.0070217503
27	0x3d81ab2b	0.06331476
28	0xbe1b9afe	-0.15195844
29	0x3db37118	0.08761805
30	0x3c87d18f	0.016579418
31	0xbddd222a	-0.10797532
32	0x3dd5a646	0.10432105
33	0xbdcba801	-0.099441536
34	0x3de6f5da	0.11277361
35	0xbdc2c569	-0.09510309
36	0x3dee1624	0.11625317
37	0x3d4223b6	0.047397338
38	0xbad216d4	-0.0016028532
39	0x3e15f997	0.14645992
40	0x3d921031	0.071319945
41	0x3c9ba64e	0.019000199
42	0xbd9261e1	-0.07147575
43	0xbd92bb34	-0.071646124
44	0x3db32df5	0.08749
45	0xbb96a5e4	-0.0045974124
46	0xbdc9a2e5	-0.09845523
47	0xbe18dd58	-0.14928186
48	0x3d9e22fa	0.07721515
49	0x3de8cb07	0.113668494
50	0x3e8001db	0.25001416
51	0xbd71b0d1	-0.059006516
52	0x3e0f164f	0.13973354
53	0xbe18fc8c	-0.14940089
54	0xbe1e46ea	-0.15456739
55	0xbc26b782	-0.010175588
56	0x3d6dfae9	0.058100615
57	0x3c6741c7	0.014114804
58	0x3e3a3898	0.18185651
59	0x3d6cba96	0.05779513
60	0x3def7df6	0.11693947
61	0xbb81240f	-0.003941066
62	0xbc429e96	-0.01187863
63	0x3e05bc40	0.13060093
64	0x3d171381	0.036883835
65	0x3e0dafbb	0.13836567
66	0xbde03a47	-0.109486155
67	0x3d97400a	0.07385261
68	0xbd8744d4	-0.06604925
69	0xbdcd9aa6	-0.100392625
70	0xbe1e23f3	-0.15443401
71	0x3caf8574	0.02142594
72	0x3add97da	0.0016906217
73	0xbc1f3c91	-0.00971903
74	0xbd068063	-0.032837283
75	0xbd84a098	-0.06475943
76	0x3daa9420	0.08329034
77	0x3e185452	0.14875916
78	0xbd4f6099	-0.050629232
79	0xbe6596ac	-0.22420758
80	0xbde2193c	-0.11039969
81	0xbe027dc2	-0.12743285
82	0xbdc58690	-0.096448064
83	0xbdbcd187	-0.09219652
84	0x3b9e28b6	0.0048266305
85	0x3dac6063	0.08416822
86	0xbcb24093	-0.021759307
87	0xbe26b267	-0.16278993
88	0xbea70645	-0.3262197
89	0x3e3b4624	0.18288475
90	0xbc2fc590	-0.010728255
91	0x3c580d5b	0.013186778
92	0xbceae4e5	-0.028673599
93	0xbe098d9d	-0.13432927
94	0x3cf0a3c0	0.029374957
95	0x3e13edae	0.14446136
96	0x3c893df4	0.016753174
97	0xbe98f309	-0.2987292
98	0xbe29bbe8	-0.16575587
99	0x3e3eaee3	0.18621401
100	0xbd908d91	-0.07058252
101	0x3dc24b21	0.09486986
102	0x3e0d38e9	0.13791241
103	0x3d905a0f	0.07048427
104	0x3e1462d7	0.1449083
105	0xbe4bba7c	-0.19895357
106	0xbdaaba63	-0.08336332
107	0x3de067bd	0.109572865
108	0x3e5aade3	0.21355395
109	0x3e54ee8d	0.20794125
110	0xbdf9b9e6	-0.121936604
111	0xbe9e10a8	-0.30872083
112	0x3b825af3	0.003978127
113	0x3dd51029	0.10403473
114	0xbce06ed4	-0.027396597
115	0xbe36e63b	-0.17861263
116	0x3d4ef348	0.05052498
117	0xbd4aec82	-0.049541958
118	0x3c839d1d	0.016066128
119	0x3e1e2b34	0.15446168
120	0xbe29ca7f	-0.16581152
121	0xbd5fb62f	-0.054617103
122	0xbd152412	-0.036411352
123	0xbc4e1e84	-0.012580518
124	0x3dc89e70	0.097958446
125	0x3e1f18b1	0.15536763
126	0x3e095b46	0.13413724
127	0xbc77a7fe	-0.015115736
128	0x3dc46fe6	0.095916554
129	0x3e2baaea	0.16764417
130	0xbe05fc9a	-0.13084641
131	0x3e014129	0.12622513
132	0x3cb56827	0.02214439
133	0xbc6319e8	-0.013861157
134	0x3c92460a	0.017855663
135	0xbe0da01d	-0.1383061
136	0xbdab3584	-0.08359817
137	0xbeb7371b	-0.3578423
138	0x3d977f1c	0.07397291
139	0x3c2bca83	0.010485294
140	0x3d8b28a2	0.067948595
141	0x3d03be26	0.03216376
142	0xbd8a879e	-0.06764148
143	0xbd93fbeb	-0.07225784
144	0xbdb6eb6a	-0.089316204
145	0xbd7b7b08	-0.06139663
146	0xbd8d14eb	-0.068887554
147	0x38d48f9d	0.00010135698
148	0x3db1f99b	0.086901866
149	0xbc93cc4a	-0.018041749
150	0xbe2ca163	-0.16858439
151	0xbe1d8f34	-0.15386659
152	0x3dbcc0b8	0.09216446
153	0x3e2b1afc	0.16709512
154	0xbd9a702a	-0.07540925
155	0x3d838ec4	0.06423715
156	0xbdf167bd	-0.11787365
157	0xbda7dd3b	-0.08196493
158	0xbc3a2939	-0.011362367
159	0x3c4d3981	0.012525917
160	0x3e27c7ab	0.16384761
161	0x3da04c18	0.07827014
162	0x3e1f6217	0.15564762
163	0xbd4e007c	-0.05029343
164	0xbb40001e	-0.0029296945
165	0x3d27c5f5	0.04096027
166	0xbde71d45	-0.112848796
167	0x3e44c839	0.19217004
168	0x3e5110a2	0.20416501
169	0x3d94eeb8	0.072720945
170	0xbe5dc31f	-0.21656464
171	0x3c8a204d	0.016861105
172	0xbc33263f	-0.010934412
173	0xbd5da268	-0.05410996
174	0x3e1236b0	0.14278674
175	0xbe19fa4d	-0.15036888
176	0xbc89d17f	-0.016823528
177	0xbd0a0eb8	-0.033705443
178	0x3d873119	0.066011615
179	0xbe11b8bc	-0.14230627
180	0xbe0ef852	-0.13961914
181	0x3d748962	0.05970133
182	0x3d4a96df	0.049460288
183	0xbde50b4a	-0.11183794
184	0x3d099060	0.033584952
185	0x3d7dce15	0.061964113
186	0xbe56c957	-0.20975243
187	0xbea111af	-0.31458804
188	0xbda36b87	-0.079794936
189	0xbe37d01f	-0.17950486
190	0xbd8097eb	-0.06278976
191	0xbe17cf16	-0.14825091
192	0xbd73e644	-0.05954577
193	0x3db838e5	0.08995227
194	0xbdcb29a6	-0.09920053
195	0xbdb2259e	-0.08698581
196	0xbde42950	-0.11140692
197	0x3d6fb44b	0.05852155
198	0xbd05c717	-0.03266057
199	0xbe11cd55	-0.14238484
200	0xbe859a40	-0.26094246
201	0xbda6123b	-0.08108946
202	0xbd93d340	-0.07218027
203	0xbdd6dcc7	-0.10491329
204	0x3e35532e	0.17707512
205	0xbd9b177b	-0.07572838
206	0x3c858989	0.016300933
207	0x3e0db4b8	0.1383847
208	0xbc1fb6be	-0.009748159
209	0xbd74c3a9	-0.05975691
210	0xbcfe862f	-0.031069843
211	0xbdd12ef9	-0.102140374
212	0x3d2d6069	0.042328272
213	0x3da1c421	0.07898737
214	0x3e54b3c7	0.20771705
215	0xbe5f1218	-0.21784246
216	0xbc88f7f6	-0.0167198
217	0xbd679e37	-0.05654737
218	0x3dfdc0bc	0.12390277
219	0x3db4feb8	0.08837646
220	0xbc8659a5	-0.016400168
221	0xbe0d66b3	-0.13808708
222	0xbd928719	-0.07154674
223	0xbc6917a4	-0.014226828
224	0x3d791d17	0.060818758
225	0xbc5a6837	-0.013330511
226	0xbdab8ea4	-0.08376816
227	0xbcaa77b6	-0.020809036
228	0xbcc7818e	-0.024353769
229	0xbe1a9275	-0.15094931
230	0x3e10cc8e	0.14140531
231	0xbd91200b	-0.0708619
232	0x3d1a8e5f	0.037733432
233	0x3da82b62	0.082113996
234	0xbe0a50fb	-0.13507454
235	0xbe1d4d01	-0.15361406
236	0xbdca2161	-0.09869648
237	0x3e5b9374	0.21442968
238	0xbe4ad548	-0.19807923
239	0x3d67ad48	0.05656174
240	0x3d92f083	0.0717478
241	0x3d5a3106	0.05326941
242	0x3d87e8a3	0.06636169
243	0x3e871c1e	0.2638864
244	0x3e8a9161	0.2706404
245	0xbd9f1948	-0.07768494
246	0x3b980e02	0.0046403417
247	0xbd69bb17	-0.05706319
248	0xbdd7f793	-0.10545268
249	0xbca08503	-0.019594675
250	0xbe1cfa88	-0.15329945
251	0xbd988bf4	-0.07448569
252	0xbe47c2eb	-0.19507949
253	0xbd13b3b3	-0.036060046
254	0x3dfbcda8	0.12295085
255	0xbea2430a	-0.31691772

fc1.bias f4 [120]
0	0x3d392134	0.04519768
1	0x3b966e05	0.004590752
2	0xbe1a4c63	-0.15068202
3	0x3e0c7406	0.13716134
4	0x3df373fb	0.11887356
5	0x3dd6c460	0.10486674
6	0xbd890845	-0.066910304
7	0xbcf2678e	-0.029590394
8	0x3dc373e5	0.095435895
9	0xbb59f2f7	-0.003325639
10	0xbdf57644	-0.11985448
11	0xbe920b3e	-0.28524202
12	0xbd88cbeb	-0.06679519
13	0xbd07500f	-0.033035334
14	0x3d80bf70	0.06286514
15	0x3e706408	0.23475659
16	0x3e652373	0.22376804
17	0xbe5e68aa	-0.21719614
18	0x3c9862b6	0.018601757
19	0xbe3f05e9	-0.18654598
20	0x3eed5e67	0.46361086
21	0x3cc89b0b	0.024487993
22	0x3e22a748	0.15884125
23	0x3d46a977	0.048501458
24	0x3d17cace	0.037058644
25	0xbe57a4e2	-0.21058992
26	0x3e021df5	0.1270674
27	0xbdca8f9f	-0.09890675
28	0xbe344898	-0.17605817
29	0xbda32d90	-0.07967675
30	0x3e87810e	0.26465648
31	0xbe35e852	-0.17764404
32	0x3cc20239	0.0236827
33	0x3bf5e940	0.007504612
34	0x3de14ea6	0.11001329
35	0x3d5b7623	0.05357946
36	0xbe94e5a2	-0.29081446
37	0x3e904c7c	0.28183353
38	0xbd886aba	-0.066609815
39	0xbe343dd8	-0.17601717
40	0xbd6c9067	-0.0577549
41	0x3dbf8f11	0.093534596
42	0xbb9cf9f4	-0.004790539
43	0x3db8a309	0.090154715
44	0x3db4941b	0.088173114
45	0x3e51efc1	0.20501615
46	0xbe0526e2	-0.13003114
47	0xb8a181d8	-7.7012635e-05
48	0x3df3152a	0.11869271
49	0x3da02fc3	0.0782161
50	0x3dcd6db4	0.1003069
51	0xbe9cc082	-0.30615622
52	0xbdc79841	-0.09745837
53	0x3e7a9a65	0.2447296
54	0x3e379537	0.17928015
55	0x3e3d1834	0.18466264
56	0x3de1bb29	0.11022026
57	0xbdabfe67	-0.08398133
58	0x3d620d09	0.055188213
59	0x3dd003e5	0.10156993
60	0xbdf5e92d	-0.120073654
61	0xbd74d108	-0.05976966
62	0x3e4312b0	0.19050097
63	0x3d06f98a	0.032952823
64	0x3e3d26bf	0.18471812
65	0xbd3eca82	-0.046579845
66	0xbc97f89a	-0.01855116
67	0x3cc0eb35	0.023549655
68	0xbe2252de	-0.15851924
69	0x3e094bd7	0.13407837
70	0x3d85862a	0.065197304
71	0xbe39b7e1	-0.1813655
72	0x3dad791e	0.08470367
73	0x3b9d8c58	0.00480799
74	0xbdda48b0	-0.10658395
75	0x3bb25e47	0.0054433676
76	0x3da03e2b	0.078243576
77	0x3d961a5d	0.07329247
78	0xbdc6c6bb	-0.097058736
79	0x3d73b7d3	0.05950148
80	0x3d5608ee	0.05225461
81	0xbdbe9446	-0.09305625
82	0xbdd882b0	-0.10571802
83	0x3e176940	0.14786243
84	0xbdef9fef	-0.11700427
85	0x3e8420b5	0.25806203
86	0xbb53f259	-0.0032340495
87	0xbe1f184e	-0.15536615
88	0xbe0fb979	-0.14035596
89	0xbdeeb416	-0.116554424
90	0x3e20f3d8	0.15718019
91	0x3de05f88	0.10955721
92	0xbde3eba8	-0.11128932
93	0xbdf69b9e	-0.120414004
94	0x3cee7457	0.02910821
95	0x3dc1f206	0.094699904
96	0x3d3cefb6	0.046127044
97	0xbdd9c447	-0.1063314
98	0xbc4b8d4e	-0.012423826
99	0x3dd159a7	0.10222178
100	0x3d6366ac	0.055517837
101	0x3e3931f1	0.18085457
102	0x3e09fd40	0.13475513
103	0xbe2cab05	-0.16862114
104	0xbe46f8a5	-0.19430788
105	0x3b2d388b	0.0026431407
106	0x3e34aee1	0.17644836
107	0xbe86e7fd	-0.26348868
108	0xbe764a32	-0.24051741
109	0x3c282ec6	0.010265058
110	0xbeacdc23	-0.337617
111	0x3e1f8dce	0.15581438
112	0xbd4f3865	-0.05059089
113	0xbd8ce42b	-0.06879457
114	0xbd0bfbf2	-0.03417582
115	0xbdc25585	-0.09488968
116	0x3d8e9887	0.06962686
117	0x3ea24bac	0.31698358
118	0x3c65e445	0.0140314745
119	0xbce60864	-0.028080173

fc2.weight f4 [84, 120]
0	0xbe67371e	-0.2257962
1	0xbd924b14	-0.07143226
2	0xbd9c0f40	-0.07620096
3	0x3e1f7483	0.1557179
4	0x3db88984	0.09010604
5	0xbd9351b9	-0.07193322
6	0x3e608521	0.21925785
7	0x3d4a1079	0.049332116
8	0xbde24514	-0.11048332
9	0x3d16d314	0.036822394
10	0xbdf85b5d	-0.12126801
11	0xbebdbc0b	-0.37057528
12	0xbe7d6e05	-0.24749
13	0x3dba61d0	0.091006875
14	0x3e32f1ea	0.17475095
15	0x3e1e9224	0.15485436
16	0x3e8d462c	0.275926
17	0xbe8d01dc	-0.2754048
18	0xbd90632d	-0.07050166
19	0xbd99b52e	-0.075052604
20	0x3e559397	0.20857082
21	0xbebe0341	-0.37111858
22	0x3e9c021e	0.30470365
23	0x3c912060	0.017715633
24	0xbd400856	-0.04688295
25	0xbc8f8462	-0.01751918
26	0x3e902a60	0.2815733
27	0xbde76d15	-0.113001026
28	0xbec7b3a0	-0.3900423
29	0x3d1fc0ce	0.039002232
30	0x3e609dfd	0.21935268
31	0x3decde95	0.11565892
32	0xbe01f4ac	-0.12690991
33	0x3d95fccf	0.0732361
34	0xbe68bd8f	-0.22728561
35	0xbdfea930	-0.12434614
36	0x3d900a6f	0.0703324
37	0xbbc65853	-0.0060530095
38	0x3e999e48	0.30003572
39	0xbcbe7eac	-0.023253761
40	0x3e23ce23	0.15996604
41	0xbe39c486	-0.18141374
42	0xbe607cf7	-0.2192267
43	0x3e5e4251	0.21704985
44	0x3ea74ab8	0.32674193
45	0x3db5f849	0.08885247
46	0x3e1f7363	0.1557136
47	0xbdcace3d	-0.09902618
48	0x3db74559	0.08948774
49	0xbdb29343	-0.08719494
50	0x3e575ff1	0.21032692
51	0x3e0c2248	0.13684952
52	0x3e8cd3f2	0.2750545
53	0x3db1c44e	0.0868002
54	0xbe10429c	-0.1408791
55	0xbd5e5809	-0.054283176
56	0xbd3b51d0	-0.04573232
57	0x3db17836	0.086655065
58	0x3e9335a8	0.28751874
59	0xbe58d505	-0.2117501
60	0xbdda5039	-0.106598325
61	0x3dd6a271	0.10480202
62	0x3c5735a3	0.013135347
63	0x3e40d675	0.18831809
64	0xbcd16517	-0.025560899
65	0xbddd759d	-0.108134486
66	0xbd758022	-0.05993665
67	0x3e02b0c4	0.12762743
68	0xba4f97ac	-0.0007919024
69	0x3dcc7e65	0.09985045
70	0x3cd33d9a	0.02578621
71	0xbe36a0e7	-0.17834817
72	0xbd877bad	-0.06615386
73	0x3d405f76	0.04696604
74	0xbd83d0cb	-0.064363085
75	0xbe31f85b	-0.17379896
76	0xbd17ab05	-0.03702833
77	0x3c0ec2bb	0.00871342
78	0xbe114bf4	-0.1418913
79	0xbe42b36f	-0.19013761
80	0xbea80ca5	-0.32822147
81	0xbc8f9508	-0.017527118
82	0x3d80adf2	0.062831774
83	0xbd9e6999	-0.07734985
84	0xbe4f3a2f	-0.20237039
85	0xbe3e2781	-0.18569757
86	0x3db1da4e	0.086842164
87	0x3e433cb2	0.19066122
88	0x3ccae22f	0.024766056
89	0x3ddbb6db	0.10728236
90	0x3e1dd3ca	0.15412822
91	0xbda2bbe5	-0.07945994
92	0x3d512a2b	0.051065605
93	0xbdaeba16	-0.08531587
94	0x3d2e596d	0.04256575
95	0xbce743fe	-0.028230663
96	0x3d80c84a	0.06288202
97	0xbd8baed1	-0.06820453
98	0x3d618273	0.055056047
99	0x3dc8af08	0.097990096
100	0xbdba7698	-0.09104651
101	0x3c4b133f	0.012394725
102	0x3ea121f6	0.31471223
103	0xbe067812	-0.1313174
104	0x3d9c6747	0.07636886
105	0x3d0bd7aa	0.03414122
106	0x3e87c3eb	0.2651666
107	0x3e8559d3	0.26045093
108	0xbf002569	-0.50057083
109	0xbece1643	-0.4025136
110	0x3d32bee3	0.043639075
111	0xbd197012	-0.037460394
112	0xbcf1e898	-0.029529855
113	0xbda4a858	-0.080399215
114	0x3e1ad639	0.15120782
115	0x3d34720f	0.044054087
116	0x3f015b0c	0.5052955
117	0x3d43f1dc	0.047838077
118	0x3ebb4e60	0.36583233
119	0x3de671c1	0.112521656
120	0x3d38149e	0.044941537
121	0xbd41e389	-0.047336135
122	0xbc06d6b9	-0.008229905
123	0x3db89956	0.090136215
124	0xbd307fef	-0.043090757
125	0x3de07136	0.10959093
126	0x3d955569	0.07291681
127	0xbdfc1e4c	-0.12310466
128	0x3d9a29b7	0.07527488
129	0x3d923c43	0.071404
130	0x3dda6ccd	0.10665283
131	0xbcf8fc7a	-0.030393828
132	0x3e1fdcb4	0.15611535
133	0x3dc86821	0.09785486
134	0x3b8d272e	0.004307649
135	0x3d9fc730	0.07801664
136	0xbd91c7ec	-0.0711821
137	0x3d837fcb	0.06420859
138	0xbe4626be	-0.19350716
139	0x3ddf5143	0.10904171
140	0xbe4d2f8b	-0.20037667
141	0x3db90c22	0.09035517
142	0xbdf14bd4	-0.11782041
143	0x3e575bad	0.21031065
144	0xbcf7cd96	-0.030249398
145	0x3d8de83a	0.06929059
146	0xbdd5d781	-0.10441495
147	0x3dde0c63	0.10842206
148	0x3e2e45e5	0.1701885
149	0xbdff5110	-0.12466633
150	0x3d00acd0	0.031414807
151	0x3e19e12b	0.15027301
152	0xbe1be80c	-0.15225238
153	0x3df6165b	0.12015983
154	0x3e175622	0.14778951
155	0xbd145bfc	-0.036220536
156	0x3d12ca6b	0.035837572
157	0x3e0512f0	0.12995505
158	0x3c5faec6	0.013652509
159	0x3cca66e3	0.024707263
160	0xbe083aeb	-0.13303725
161	0xbd079ba2	-0.033107407
162	0x3e05312a	0.13007036
163	0x3e43746e	0.19087383
164	0xbca6a2d3	-0.020341313
165	0x3cb8d222	0.022561137
166	0x3dd09325	0.101843156
167	0xbb3a90e5	-0.0028467712
168	0xbe0fed1e	-0.14055297
169	0xbd33ae98	-0.043867677
170	0xbe04a452	-0.12953308
171	0xbe2f09f8	-0.17093647
172	0x3ce52184	0.027970083
173	0x3d0d2805	0.034461994
174	0x3e03759c	0.12837833
175	0x3d017e0e	0.031614356
176	0xbd34f944	-0.04418303
177	0xbcfc8689	-0.03082587
178	0x3c40980c	0.011755001
179	0x3e1305c3	0.14357667
180	0xbcabe5fc	-0.020983689
181	0x3d4cd41a	0.050006963
182	0xbdc6a6d0	-0.09699786
183	0xbcf76042	-0.030197266
184	0x3d205911	0.03914744
185	0xbc9abc8e	-0.018888738
186	0xbd8cd0cd	-0.06875763
187	0x3d67c05c	0.056579933
188	0xbd30daa8	-0.043177277
189	0x3d1b0dc0	0.03785491
190	0xbe2921fc	-0.1651687
191	0xbcebf89d	-0.028805071
192	0xbd8823c0	-0.06647444
193	0xbdc5f8ba	-0.096665815
194	0xbcb709fa	-0.022343624
195	0xbe63002d	-0.22168036
196	0xbb6cccd7	-0.0036132836
197	0xbdbca665	-0.09211425
198	0x3d93bbed	0.072135784
199	0xbca70e95	-0.020392695
200	0x3debc5de	0.115123495
201	0xbd881b28	-0.06645805
202	0xbd3764e2	-0.044773944
203	0xbd29bb35	-0.0414383
204	0x3cb43cf6	0.022001725
205	0xbde6e24c	-0.112736315
206	0xbdae9762	-0.08524968
207	0xbdc58f5f	-0.096464865
208	0xbd9ea797	-0.07746809
209	0xbd8af286	-0.06784539
210	0x3e0f550b	0.13997285
211	0x3c818ce5	0.015814254
212	0xbdc976f7	-0.09837144
213	0x3b96071b	0.0045784838
214	0xbd0278ad	-0.031853367
215	0xbe4584f6	-0.19289002
216	0x3d647737	0.055777755
217	0x3d8f3aca	0.06993635
218	0x3c68eae7	0.014216161
219	0xbdcfaac0	-0.1013999
220	0x3d9bc23f	0.07605409
221	0x3cdb2ca4	0.026754685
222	0x3d27645e	0.040867202
223	0xbde66e18	-0.112514675
224	0xbbc5a896	-0.00603206
225	0xbd664ce6	-0.05622568
226	0xbe059f49	-0.13049044
227	0x3e187930	0.1488998
228	0xbe0a9f42	-0.13537315
229	0x3cd2c4e7	0.025728656
230	0xbdbacdc1	-0.09121276
231	0x3de579d1	0.11204875
232	0x3c57ef96	0.01317968
233	0x3d9fd93a	0.078051046
234	0x3d9f3bd2	0.07775082
235	0xbd882a35	-0.06648675
236	0xbdfd46a7	-0.123669915
237	0x3d513ec5	0.051085252
238	0x3d072c95	0.0330015
239	0xbd752a9d	-0.059855092
240	0x3e125d5a	0.14293423
241	0x3d72c78b	0.05927233
242	0x3e6f53d7	0.23371826
243	0xbda682d0	-0.08130419
244	0xbdb849b7	-0.08998435
245	0xbdffc3ba	-0.12488504
246	0xbcd3fbe9	-0.025876956
247	0x3df89917	0.121385746
248	0xbe28d256	-0.16486487
249	0xbc7759b7	-0.015097073
250	0x3e6e92dc	0.2329821
251	0x3de15ebc	0.11004397
252	0x3dbe31a2	0.092868105
253	0xbe260ba3	-0.16215377
254	0x3e0f0642	0.13967231
255	0x3de710f9	0.11282534

fc2.bias f4 [84]
0	0x3e4a43b4	0.19752389
1	0xbd22f4a6	-0.039784096
2	0xbed7242e	-0.4201979
3	0x3ea89a2b	0.3293012
4	0xbe56f625	-0.20992334
5	0xbed80f1a	-0.42199022
6	0x3d1229d8	0.035684437
7	0xbe5626e2	-0.2091327
8	0x3edc2d7c	0.43003452
9	0x3eae9fd8	0.34106326
10	0x3ebcbc9d	0.3686265
11	0xbd46d2dc	-0.048540935
12	0x3e298a4e	0.16556665
13	0xbe7e41cb	-0.24829786
14	0x3c736a61	0.014856906
15	0xbe5e908f	-0.21734832
16	0xbe05a571	-0.13051392
17	0x3e939c94	0.28830397
18	0x3d3e49eb	0.046457212
19	0x3d0a1916	0.03371533
20	0xbdd09eb4	-0.1018652
21	0xbd49b97f	-0.04924917
22	0x3e00fbbf	0.12596034
23	0xbde1c48b	-0.11023816
24	0x3ea217bc	0.31658733
25	0xbca6e187	-0.020371212
26	0xbda70b8d	-0.081565
27	0xbedb4737	-0.4282777
28	0x3e1f8868	0.15579379
29	0x3d0a108b	0.033707183
30	0x3e3f2e7b	0.18670075
31	0xbe3958e0	-0.1810031
32	0x3ec4a920	0.38410282
33	0x3d9c0342	0.07617809
34	0xbd108f95	-0.03529318
35	0x3d60fb7a	0.054927327
36	0x3d572593	0.052526068
37	0xbd48633c	-0.048922762
38	0x3e05e49f	0.13075493
39	0x3ea11927	0.31464502
40	0xbdd15f08	-0.10223204
41	0xbe253dc8	-0.16136849
42	0x3e925c5c	0.2858609
43	0x3ec0f8fa	0.37689954
44	0xbd9bac3b	-0.0760121
45	0xb947e702	-0.00019064176
46	0x3ee07cf4	0.43845332
47	0xbe191025	-0.14947565
48	0x3f065fe6	0.5249008
49	0x3e6ced91	0.231375
50	0x3e687952	0.2270253
51	0xbbe68f86	-0.0070361523
52	0xbd1b49aa	-0.03791205
53	0x3e8f81e7	0.28028795
54	0x3e2a9934	0.16660005
55	0xbe59b9bf	-0.21262263
56	0x3e8bb8dd	0.27289477
57	0x3d8b1961	0.0679195
58	0xbd453c73	-0.048153352
59	0x3e24179a	0.16024628
60	0x3dcffbcf	0.101554506
61	0xbc8ea274	-0.017411448
62	0x3c909479	0.017648922
63	0x3e37e6f8	0.17959201
64	0x3e204cf7	0.1565436
65	0xbea14a37	-0.31501934
66	0x3eb794ac	0.35855615
67	0x3e07a609	0.13246931
68	0x3dabcea6	0.083890244
69	0x3caddced	0.02122351
70	0xbe6b8b46	-0.23002347
71	0x3df2848c	0.118416876
72	0xbeb048fc	-0.34430683
73	0x3cc06dfe	0.023489948
74	0x3d494e5f	0.049147006
75	0x3d635b4d	0.055506993
76	0x3d1c2b54	0.03812726
77	0xbc9a59ea	-0.018841702
78	0x3db902b5	0.090337195
79	0xbea6b8ff	-0.32563016
80	0x3e97b98b	0.29633746
81	0x3e4f882f	0.20266794
82	0x3e2bcd02	0.16777423
83	0xbd891b71	-0.06694687

fc3.weight f4 [10, 84]
0	0x3e987904	0.29779828
1	0xbcccbfec	-0.02499386
2	0x3eac7d7c	0.33689487
3	0x3eed1e0a	0.4631198
4	0xbd543ca4	-0.051815644
5	0x3eb13896	0.34613484
6	0x3c9a13a9	0.018808203
7	0x3dc88eae	0.09792839
8	0x3d3ead06	0.046551727
9	0x3e0928e9	0.13394512
10	0x3c736105	0.014854674
11	0xbdaf4a8f	-0.08559143
12	0xbe93714f	-0.28797385
13	0x3e4fbcdf	0.20286892
14	0x3e545b90	0.20738053
15	0x3eea49da	0.4575947
16	0x3ee14895	0.44000688
17	0xbe8a92a5	-0.27065006
18	0x3eaaa8ca	0.333319
19	0x3e24a053	0.16076784
20	0xbe7f99ec	-0.2496106
21	0xbe967756	-0.2938792
22	0x3d3ab432	0.045582004
23	0x3e5aba95	0.21360238
24	0x3e221468	0.15828097
25	0x3cdc9ae2	0.026929323
26	0xbf00cebb	-0.50315446
27	0x3d93c81c	0.07215902
28	0x3aa98914	0.0012934529
29	0x3e9a5580	0.30143356
30	0xbb4b4449	-0.0031016043
31	0x3f177f73	0.5917885
32	0xbdb5a83c	-0.08869979
33	0xbe99b5cd	-0.30021515
34	0x3ed82a7a	0.42219907
35	0x3e58f9dd	0.21189065
36	0x3e8dee01	0.27720645
37	0x3ea44692	0.3208509
38	0x3e86e8d0	0.26349497
39	0xbe59f03e	-0.21283051
40	0x3d7b8742	0.06140829
41	0xbee79f85	-0.4523889
42	0xbf1b5eac	-0.6069133
43	0x3e3f26c2	0.18667129
44	0xbd9b2037	-0.07574504
45	0xbbea059a	-0.007141781
46	0xb9ee9fd3	-0.00045513976
47	0xbda5fbf6	-0.08104698
48	0xbebb140d	-0.36538735
49	0xbe388d37	-0.18022619
50	0x3e337ff3	0.17529278
51	0xbdb82017	-0.08990496
52	0xba15b851	-0.0005711364
53	0xbed73d0e	-0.4203877
54	0xbebab1ad	-0.3646368
55	0x3ea8df46	0.32982844
56	0x3ed84d00	0.42246246
57	0x3e04c213	0.12964658
58	0xbe289a72	-0.16465166
59	0x3ec50799	0.3848236
60	0xbcf31fb6	-0.029678207
61	0x3e260957	0.162145
62	0x3ea6c51d	0.3257226
63	0xbf0765c6	-0.5288967
64	0xbe632c60	-0.22184896
65	0xbe9088af	-0.2822928
66	0xbed5bb2c	-0.41744363
67	0x3ed0a360	0.40749645
68	0xbe840ef1	-0.2579265
69	0xbeded20e	-0.43519634
70	0xbd21a429	-0.039463196
71	0x3e8ed5d6	0.2789752
72	0xbeb7bc73	-0.35885963
73	0xbed4c170	-0.4155383
74	0x3efb2ac0	0.49056053
75	0xbeb94d13	-0.36191615
76	0xbed87d32	-0.42283016
77	0x3eac03ab	0.33596548
78	0x3d2dfa28	0.042474896
79	0x3e9a5efa	0.30150586
80	0x3ec9e7f7	0.39434788
81	0xbe891ff7	-0.267822
82	0xbec34e84	-0.3814584
83	0x3e856a11	0.26057485
84	0xbeb28f92	-0.3487516
85	0xbe2a4856	-0.16629156
86	0x3f0f118d	0.55886155
87	0xbee56f74	-0.44811594
88	0x3e8e58e0	0.2780218
89	0x3ca2f167	0.0198905
90	0x3e59da72	0.21274737
91	0xbd40fe28	-0.047117382
92	0xbecdf294	-0.40224135
93	0xbe22be94	-0.15893012
94	0xbe64c47d	-0.2234058
95	0xbcc511e3	-0.02405638
96	0xbe201c40	-0.15635777
97	0x3eb7dc63	0.3591033
98	0xbecec84e	-0.40387195
99	0x3eabeb34	0.33577883
100	0x3e30e892	0.17276219
101	0x3ecaa787	0.39580938
102	0xbdb12a0f	-0.086506
103	0x3e9dfd62	0.30857378
104	0x3e92bad5	0.28658167
105	0xbde3dbca	-0.11125906
106	0x3ce17b8a	0.027524728
107	0xbeb7a33b	-0.35866722
108	0xbe750bb7	-0.2393025
109	0xbea9307d	-0.33044806
110	0x3e495285	0.19660385
111	0x3b8b157d	0.004244505
112	0x3e8213eb	0.2540582
113	0x3d5e3618	0.054250807
114	0xbf2d7061	-0.677496
115	0x3d909242	0.070591465
116	0x3ed09ae8	0.40743184
117	0x3d7ae60f	0.061254557
118	0xbe860569	-0.26176003
119	0xbeb0d01e	-0.3453378
120	0x3e7aa08f	0.2447531
121	0xbc951421	-0.018198075
122	0x3db0e175	0.086367525
123	0xbe4a3178	-0.19745433
124	0x3ef00a93	0.46883067
125	0x3e0543d1	0.13014151
126	0xbc37ef48	-0.011226483
127	0xbf079700	-0.5296478
128	0x3d79d11a	0.06099043
129	0x3e1c661b	0.15273325
130	0xbdfda0cc	-0.12384185
131	0x3ead8d38	0.33896804
132	0xbee7bb96	-0.45260304
133	0xbcffd8d5	-0.031231323
134	0xbe6ec717	-0.23318134
135	0xbe5f9bc1	-0.21836759
136	0xbf0631f8	-0.52419996
137	0x3e967fa5	0.2939426
138	0xbe15ab53	-0.14616136
139	0x3ed1bd78	0.40964866
140	0xbe48c8f1	-0.19607903
141	0x3e40547c	0.18782228
142	0xbe4b6277	-0.1986178
143	0x3e01009d	0.1259789
144	0xbea0b5f9	-0.31388834
145	0xbe4d5e6b	-0.20055549
146	0x3db3b396	0.08774488
147	0x3e666c54	0.22502261
148	0x3e442144	0.19153315
149	0x3ea5663f	0.3230457
150	0xbf1f7ee2	-0.6230298
151	0xbebd96f4	-0.3702923
152	0xbef42555	-0.47684732
153	0x3df213f9	0.11820216
154	0x3e947e45	0.29002586
155	0xbe716661	-0.2357421
156	0x3ef44d9a	0.47715455
157	0xbe057449	-0.1303264
158	0xbe3659a1	-0.17807628
159	0x3eb71826	0.3576061
160	0x3ec44167	0.38331148
161	0x3d9da6fd	0.07697866
162	0xbeaabb20	-0.3334589
163	0x3ead21ba	0.33814794
164	0x3c37f91e	0.011228828
165	0xbe143807	-0.14474498
166	0x3de35a42	0.111012
167	0x3cec5e4d	0.02885356
168	0x3f2e26eb	0.68028134
169	0x3f0343fe	0.5127562
170	0x3e35d6c7	0.17757712
171	0x3e9af442	0.3026448
172	0xbe94d462	-0.29068285
173	0x3ed850e4	0.42249215
174	0xbe0c71aa	-0.13715234
175	0x3f1a4e04	0.6027529
176	0x3eaa6a27	0.33284113
177	0xbefb1bf6	-0.4904477
178	0x3ed1217d	0.40845862
179	0xbcdd78c3	-0.027035123
180	0xbeee5678	-0.46550345
181	0xbefd0d9d	-0.4942445
182	0xbe28ea5a	-0.16495648
183	0xbd342fe8	-0.043991
184	0x3e5f05dd	0.2177958
185	0xbe14846d	-0.14503641
186	0xbf1d4a41	-0.6144143
187	0x3ee701dd	0.4511861
188	0x3db96fa8	0.090545
189	0x3ec4570b	0.3834766
190	0xbe301b00	-0.171978
191	0x3ed7fce7	0.42185137
192	0xbef5a2f1	-0.47975877
193	0x3e2612ad	0.16218062
194	0x3d9dd016	0.07705705
195	0x3a75de2e	0.00093791157
196	0xbde03711	-0.10948003
197	0x3e743947	0.23849975
198	0x3e944398	0.2895782
199	0x3f0d2817	0.551393
200	0xbe970b13	-0.29500636
201	0x3ec99a54	0.39375556
202	0x3f06761c	0.5252397
203	0x3efc3581	0.4925957
204	0xbec0239d	-0.3752717
205	0xbe2e782c	-0.1703803
206	0xbf0329d1	-0.5123568
207	0x3dc39282	0.095494285
208	0xbdad8f07	-0.08474546
209	0x3e9f8c85	0.31161895
210	0x3eb1f20f	0.3475499
211	0xbe06ad0e	-0.13151953
212	0xbeab1bdd	-0.33419695
213	0xbdb48b55	-0.08815638
214	0xbf2a193c	-0.66444755
215	0xbe954a31	-0.29158166
216	0x3e3777b5	0.17916758
217	0x3ed8102e	0.42199844
218	0x3bcfac2a	0.006337662
219	0xbec11973	-0.3771473
220	0x3e32cc82	0.17460826
221	0xbe3f4015	-0.18676789
222	0xbcd88e4a	-0.026435036
223	0x3e18fba2	0.1493974
224	0xbed0e162	-0.40796953
225	0xbe108092	-0.14111546
226	0xbe931d95	-0.28733507
227	0x3e9b16c3	0.30290803
228	0x3f0ce605	0.5503848
229	0xbe7ad03f	-0.24493502
230	0xbd4b35b6	-0.04961177
231	0x3e0810d3	0.13287668
232	0xbee2ea8e	-0.44319576
233	0x3e8a6125	0.2702724
234	0x3cc380c6	0.023865115
235	0xbefc5bb5	-0.49288717
236	0x3ef390f1	0.4757152
237	0xbd27e668	-0.040991217
238	0xbd923ea8	-0.07140857
239	0xbe8c93d9	-0.2745655
240	0x3e914f01	0.28380588
241	0x3e5d7844	0.21627909
242	0xbd28e6ed	-0.041235853
243	0xbf07b53f	-0.53010935
244	0xbe03df1e	-0.12878081
245	0xbea98a39	-0.33113268
246	0x3d9aeda9	0.07564861
247	0x3e9978d8	0.2997501
248	0xbef4827a	-0.47755796
249	0x3d4f96b7	0.050680842
250	0x3dfbd2e8	0.122960865
251	0xbc5a4ceb	-0.013324003
252	0xbd309e80	-0.043119907
253	0xbe6f0660	-0.23342276
254	0xbe9c8ce6	-0.30576247
255	0xbf0dc995	-0.55385715

fc3.bias f4 [10]
0	0xbed7c8e2	-0.4214545
1	0xbf4186f6	-0.7559656
2	0xbe968be2	-0.29403597
3	0x3e3eab9d	0.18620153
4	0x3f7ad40b	0.979798
5	0xbe8a7756	-0.2704417
6	0x3d3afb28	0.045649678
7	0xbd60e5a1	-0.05490649
8	0x3ef4a46d	0.47781697
9	0xbe880e7d	-0.26573554
